time.struct_time(tm_year=2018, tm_mon=10, tm_mday=7, tm_hour=3, tm_min=35, tm_sec=35, tm_wday=6, tm_yday=280, tm_isdst=1)
Sequential(
  (0): Linear(in_features=148817, out_features=1000, bias=True)
  (1): ReLU()
  (2): Linear(in_features=1000, out_features=100, bias=True)
  (3): Linear(in_features=100, out_features=52, bias=True)
  (4): ReLU()
)
TRAINING
time.struct_time(tm_year=2018, tm_mon=10, tm_mday=7, tm_hour=10, tm_min=3, tm_sec=7, tm_wday=6, tm_yday=280, tm_isdst=1)
Sequential(
  (0): Linear(in_features=148817, out_features=1000, bias=True)
  (1): ReLU()
  (2): Linear(in_features=1000, out_features=100, bias=True)
  (3): Linear(in_features=100, out_features=52, bias=True)
  (4): ReLU()
)
TRAINING
0-0: 0.014736994169652462
accuracy: 0.9711538461538461, precision: 0, recall: 0
true positive: 0, true negative: 808, false positive: 0, false negative: 24
0-1: 0.01096360757946968
accuracy: 0.9783653846153846, precision: 0, recall: 0
true positive: 0, true negative: 814, false positive: 0, false negative: 18
0-2: 0.013762304559350014
…
validation: 10-4: 0.015383465215563774
accuracy: 0.9663461538461539, precision: 1.0, recall: 0.15151515151515152
true positive: 5, true negative: 799, false positive: 0, false negative: 28
validation: 10-5: 0.00987180508673191
accuracy: 0.9795673076923077, precision: 0.6, recall: 0.16666666666666666
true positive: 3, true negative: 812, false positive: 2, false negative: 15
in epoch: accuracy: 0.9689503205128205, precision: 0.782608695652174, recall: 0.10714285714285714
time.struct_time(tm_year=2018, tm_mon=10, tm_mday=7, tm_hour=11, tm_min=41, tm_sec=50, tm_wday=6, tm_yday=280, tm_isdst=1)
Sequential(
  (0): Linear(in_features=148817, out_features=1000, bias=True)
  (1): ReLU()
  (2): Linear(in_features=1000, out_features=100, bias=True)
  (3): Linear(in_features=100, out_features=52, bias=True)
  (4): ReLU()
)
TRAINING
time.struct_time(tm_year=2018, tm_mon=10, tm_mday=7, tm_hour=11, tm_min=42, tm_sec=5, tm_wday=6, tm_yday=280, tm_isdst=1)
Sequential(
  (0): Linear(in_features=148817, out_features=1000, bias=True)
  (1): ReLU()
  (2): Linear(in_features=1000, out_features=100, bias=True)
  (3): Linear(in_features=100, out_features=52, bias=True)
  (4): ReLU()
)
TRAINING
time.struct_time(tm_year=2018, tm_mon=10, tm_mday=7, tm_hour=11, tm_min=44, tm_sec=1, tm_wday=6, tm_yday=280, tm_isdst=1)
Sequential(
  (0): Linear(in_features=148817, out_features=1000, bias=True)
  (1): ReLU()
  (2): Linear(in_features=1000, out_features=100, bias=True)
  (3): Linear(in_features=100, out_features=52, bias=True)
  (4): ReLU()
)
TRAINING
